ppo_hyperever.pth (torch, 67099 bytes, 18 tensors)

shared.0.weight f4 [64, 4]
00000000: cfb5 66be 103e d63e 6d17 a23d 25b3 1ebe
00000010: 8b58 a03d d534 9a3e 9f38 2dbe 649e 2a3f
00000020: d5d9 c33e 0986 15bf 71e0 13be 514a 1c3d
00000030: e7ae bf3e 7ac4 40bf 50bd 4c3e e3be a7be
00000040: 0988 53bd 15df 413e ae16 133d 337f 5abd
00000050: 38b3 b4be 241d 9d3f ef65 3ebe 3061 583e
00000060: 9d04 d9be 02d2 933f 6875 04be d170 0bbd
00000070: 5314 37bf 12a6 a7be da41 3fbe 867a a8bd
00000080: 34c9 62be e576 b23e 12c1 3dbd 4662 8e3e
00000090: dee2 4fbe f481 263f 32b2 75be 2826 123f
000000a0: c0a8 eabc 8683 3abc e3a8 443e 6934 78be
000000b0: 5145 d73d 7d16 febe d9e7 e4bd c8ff c53d
000000c0: bf9d 6c3d d7a2 9c3e ba28 983d 23c5 cd3e
000000d0: 2d0c 80be b5d8 1a3f cc69 98be a936 f13e
000000e0: 5dd9 0a3f 58c3 913e f8a7 c63d 61b7 7b3c
000000f0: 279a 093d 5633 16bc 038c 973d cc36 aebd
00000100: c049 1e3c 5963 a13f bf05 63be 9497 413f
00000110: 5bee e43d 423c 8fbc 1132 60bd d898 543d
00000120: 6e1c f4bd ddd6 813e 0800 c83d e633 a4bd
00000130: 0f81 063f bedc 14bf 81d1 093d 2a8d 0bbe
00000140: fc58 963e 39c5 0a3e 1ed6 0bbd ec8f ca3c
00000150: b43a c83d b1fc 81bf aa23 133e 7fc3 353e
00000160: e296 e13e c1b5 6abf a793 993d f9b5 1d3e
00000170: 422c f7be c528 8abe 3a65 88be 31f4 203e
00000180: 1636 383f d836 d23e e1aa 0e3e a498 103e
00000190: f7d3 04bd 3280 e43d 8c4d 113d ba11 49bd
000001a0: 035c 643e c468 743f d870 24bf 3dc9 a13e
000001b0: e4bb c43d ac3c 0cbf 36b6 d23e e31c acbe
000001c0: b9de f83e 9071 703f 3d0d 8fbd 1ede 2d3e
000001d0: 32e4 c9bc 4902 a63d 7c98 3a3e 9c07 06be
000001e0: ef33 c4bd 5944 76bb 87e4 b8bd 0ed2 263d
000001f0: c672 ac3e aea2 82bf d3da 9f3e 8f6a f1be
00000200: 1ed7 04be 48dd 723e 6e94 813d 67e6 99bd
00000210: 5aea b4bd 3119 0b3f 7738 88be 05f1 ca3e
00000220: 7ca2 0dbe 6d89 893e 4c0f 663b 810a feb9
00000230: 2925 52be 0498 d93f ea9b 5fbe f8fb 813e
00000240: 3010 8e3e 1759 8a38 a9d5 24bd 4435 083d
00000250: a75d 9f3e 73e9 efbe 8012 e23d 4dba 403e
00000260: e579 c4bd da30 7abd fd4f 36bd eacb 1b3d
00000270: 2230 823e 57a3 dcbd efee 0bbd 623c a4bc
00000280: 7b78 af3e cd9a 25be 9382 eabd 04dc a03d
00000290: 6bd2 34be e447 e03d 2787 1b3e dbc0 9e3d
000002a0: fddc 1b3e 4c06 4b3e 3503 af3d b756 123e
000002b0: 5d2f d23d c10c 393e c85f 023e bc7c 9fbd
000002c0: 34fe b8bd 27f0 a33d c9b2 efbd 976b 8a3d
000002d0: 8e62 92be 041a ab3e d3fe f83a 265f 46bd
000002e0: 944b 12bf 8a04 e43e 0982 63bc 18f9 ccbd
000002f0: b6da 09bf 472d 81be c02f 22be d591 1bbe
00000300: 64a8 cdbe e06c db3e 9c4b ba3c b669 013d
00000310: e02e 63be f028 a33e e542 633d 62c5 2abc
00000320: 316e 8ebd 7e32 143e 0c9b 8b3d 1568 7bbd
00000330: d214 90be 5dfb c33e b62a 9e3d 0ea6 e1bb
00000340: 77f6 a63e cd8c 11bf aa77 7a3e 2b94 90be
00000350: 2e9a 5dbf 7ba7 ac3e cc13 3bbe 0b16 49bd
00000360: 4341 403f 441e 043f a4e0 5a3e f125 553e
00000370: 885b a03e d5ad 463d cd27 1abd 906a 2abd
00000380: 0dbc 80be 5d0e 433c 91c9 983b 2347 de3c
00000390: 4c7e 93be 47d1 9f3f bd55 fbbd 0c75 4e3e
000003a0: 82cd 98be df4d 4e3e d5ba 923d ae5a f9bb
000003b0: 53b6 aabd 7bbd c83d 6c23 1f3d fa4c 5dbd
000003c0: f86a d43e 2236 373e 363d 82be 3c89 e63e
000003d0: 6e10 7abe ac93 963f c326 57be 5dcd 953e
000003e0: 1831 9e3e 0fa1 8c3f 43bf 9fbd e8db 283e
000003f0: 8d79 9abd 87dd 843f ae05 c2be b6b3 ca3e
-0.22530292 0.41844225 0.07914624 -0.15498026 0.07829388 0.30118433 -0.1691613 0.66647935
0.3825213 -0.58407646 -0.14441086 0.03815681 0.37438127 -0.752998 0.19994092 -0.32762823
-0.051643405 0.18932755 0.0359103 -0.053343963 -0.35292983 1.2274518 -0.18593572 0.21130824
-0.42386332 1.1548464 -0.12935412 -0.034043137 -0.7151539 -0.3274389 -0.18677464 -0.082264945
-0.22147065 0.34856334 -0.046326704 0.27809352 -0.20301387 0.6504204 -0.23993757 0.5708947
-0.02864492 -0.011383897 0.1920505 -0.24238743 0.10511268 -0.49626532 -0.11177034 0.09667927
0.057767626 0.30592987 0.07429643 0.40189466 -0.2500929 0.6048692 -0.29768217 0.47112015
0.5423792 0.28469348 0.09700006 0.015363545 0.033594277 -0.009167513 0.07399752 -0.085065454
0.009661138 1.2608443 -0.2217016 0.75621915 0.11178275 -0.017484788 -0.054735247 0.051903576
-0.11919485 0.2535924 0.09765631 -0.08017711 0.5254068 -0.58149326 0.033647064 -0.13628069
0.29364765 0.13551797 -0.034139745 0.02472683 0.09776822 -1.015524 0.14369074 0.17750357
0.44060427 -0.91683584 0.074988656 0.15401448 -0.48275954 -0.2698423 -0.2663973 0.15718152
0.7195753 0.41057467 0.13932373 0.14120728 -0.032428708 0.11157264 0.035474345 -0.04908917
0.22300725 0.9547236 -0.64234686 0.31598845 0.0960615 -0.5478008 0.4115464 -0.3361579
0.48607424 0.9392328 -0.06984947 0.16979262 -0.024644945 0.081059046 0.1822223 -0.1308884
-0.09580218 -0.003757736 -0.09027963 0.040727668 0.33681315 -1.0205896 0.31221637 -0.4715161
-0.12972686 0.23717225 0.06327139 -0.07514649 -0.088337615 0.54335314 -0.2660558 0.39637008
-0.13831514 0.2686266 0.0035104332 -0.0004845448 -0.20521988 1.6999516 -0.2183682 0.2538755
0.27746725 6.596947e-05 -0.040242825 0.033253923 0.3112614 -0.46857795 0.11038685 0.18821068
-0.09593562 -0.061081745 -0.044509877 0.038036264 0.25427347 -0.10773342 -0.03416341 -0.020048324
0.34271607 -0.16172333 -0.11450686 0.07854465 -0.17658393 0.10951212 0.15188275 0.07751628
0.15221019 0.19826621 0.085455336 0.14290892 0.1026294 0.18071271 0.1273185 -0.07787463
-0.090328604 0.0800479 -0.117040224 0.067588024 -0.28590816 0.33418286 0.0018996842 -0.048430584
-0.57146573 0.44534713 -0.013885983 -0.10008448 -0.5384935 -0.25229856 -0.15838528 -0.1519235
-0.40167534 0.42856503 0.022741131 0.031594954 -0.2218585 0.3186717 0.055483717 -0.010423036
-0.06954611 0.14472386 0.06816682 -0.061378557 -0.28140885 0.38277712 0.0772299 -0.0068862503
0.32609913 -0.5685547 0.2445971 -0.28238043 -0.86563385 0.33721527 -0.1826927 -0.049093287
0.7509958 0.5160868 0.21374756 0.20815255 0.31319833 0.048505623 -0.037635613 -0.041605532
-0.2514347 0.01190528 0.0046627005 0.02713353 -0.28807294 1.2485741 -0.12272213 0.20161837
-0.2984429 0.20146893 0.07164542 -0.007609687 -0.08335557 0.098017655 0.03885214 -0.05402849
0.4148786 0.17891744 -0.25437325 0.45026577 -0.2442033 1.1763816 -0.2101088 0.29258242
0.3089683 1.0986651 -0.07800152 0.16490138 -0.07542715 1.0380105 -0.37894958 0.39590234

shared.0.bias f4 [64]
00000000: ada2 14be e7c4 6abe 9786 11be 3eeb 0dbf
00000010: 54f1 90be b43d 2f3f fc98 7b3f e16f f33d
00000020: 2aa1 1cbe a3ce 3d3e c7a3 8f3c 3b4c 513e
00000030: b038 803f 594d 103f 65f5 383d 5068 52be
00000040: 7ed4 41bd 09b7 d33e d727 92be 8101 2f3c
00000050: fc17 dabe 1e9c 733c cb39 d0bc 62d6 74bf
00000060: 9675 fc3d 0ad0 5bbe 9b8a bbbe ba42 25bf
00000070: 6c16 b2bf 0860 45be b996 473e 5c3e 30bf
00000080: c784 71be 248b b63e b807 a2be 06cc 2ebf
00000090: f1e8 9fbe 5daf f83e 5d13 843e 0056 5fbe
000000a0: 5a15 6b3d da3e 3a3e ed3c 383e 7464 aabd
000000b0: 8599 083e 7255 18bd c505 7d3f c762 413e
000000c0: 4acd 82bc 1e1e 1ebc bf0e b7be 4877 203e
000000d0: 8113 48bf 52c6 023f c5a8 b43e cbba bcbe
000000e0: 2423 b03e c790 2fbf b1a5 2e3e d1f5 9cbe
000000f0: 78ab 3abf cecb 233f 5ea4 743f bf94 0dbf
-0.14515181 -0.22926675 -0.14211498 -0.55437076 -0.2830912 0.68453526 0.9828031 0.118865736
-0.15295854 0.18535857 0.01753415 0.20439236 1.00173 0.56368023 0.0451559 -0.20547605
-0.04732179 0.41350582 -0.2854602 0.010681511 -0.42596424 0.014868764 -0.025418183 -0.9563962
0.12327115 -0.2146608 -0.36629185 -0.6455494 -1.3913093 -0.19274914 0.1949109 -0.6884515
-0.23585807 0.3565303 -0.31646514 -0.68280065 -0.31232408 0.48571292 0.25796023 -0.2181015
0.05739341 0.18188038 0.17991991 -0.08319941 0.13339813 -0.037190862 0.9883693 0.18885337
-0.01596703 -0.009650735 -0.35753438 0.15670502 -0.7815476 0.5108386 0.3528501 -0.36861262
0.3440181 -0.6858029 0.17055394 -0.30656293 -0.7291789 0.63982856 0.95563304 -0.55305094

shared.2.weight f4 [64, 64]
00000000: 1210 9fbd d53c 94be 2b2f 593e d4ac 263f
00000010: 420b 10be d12b 6bbf b512 13bf 6af8 fd3e
00000020: 5efe 78bd 7c9b 16bf 5711 ba3e e779 223d
00000030: 2c42 373e 64ff 4dbf 2f40 0dbf e9be 523e
00000040: f3b6 15bf c8ca 473d 68b4 143c 7467 9f3e
00000050: a040 9c3e e183 103e 4669 a43e a9cc 0b3f
00000060: 1558 0dbf 25ee 34be ba9b 94be 1e35 4d3f
00000070: 5d45 833f 31fe 473e 9c41 7bbb ebd7 873f
00000080: be05 d5bd cf0d 4cbf 5932 7ebe 2bcc 13be
00000090: 6aac 18be 4ce5 693d 71c9 503d fbc5 1bbe
000000a0: 5f67 ffbd 3795 663e ac97 6ebe e86a 083e
000000b0: 7941 2a3d dba9 883e ca57 28bf 400a 9f3e
000000c0: 188b 61be 5561 57be 4dff e8bc 4fd4 00bf
000000d0: 0ab4 323f 7e4a bebe ff7f 67bf 8eb8 ef3c
000000e0: 7270 4bbd b11b d93d a8a6 75be 768d b93d
000000f0: 8e6b 0f3d 53e5 b6bf f6f9 20bf 898d 05be
00000100: 05ee 9a3d b25a a73e b2ac 22bd ba58 5abf
00000110: e1cc 923e 56b8 3c3f 86ed b23d 71a0 39be
00000120: fad5 9c3e d986 223f a022 85bd ee6e 5ebe
00000130: 0a7e 073d 37d0 9d3f 3ad9 66bc e277 8a3b
00000140: e6f2 283f d3f2 bfbe 4ee6 083f 235a f2bd
00000150: b9d1 7abe 1b1b 2dbe 2dcc 49bf 1670 5cbe
00000160: 410e 7e3e 1cbe 65be f20a b83e 2777 6bbf
00000170: 0aab 23bf 483f 9cbd 5254 ab3e 6243 71bf
00000180: ed38 973e e6fe 123f f157 033f b2ae 8a3e
00000190: 61ad d83d 51d7 0cbf 97cc 8c3e 4f85 ad3e
000001a0: 1b8b 0abe 5505 b43c 6a04 65bd 01b9 9e3d
000001b0: 446b f83b b4d1 e43e 4be7 df3e 9c6d 31bd
000001c0: c4c8 bc3e f38f ab3d d9d7 673e fe04 153f
000001d0: a0ed 86bf 05c5 c13e 07a5 963e 738f adbe
000001e0: 957e 463e d6f1 b93d 3d47 38be d0d3 063f
000001f0: fa10 793c 5389 8f3f 6a0b 0b3f 0eb9 03be
00000200: 61e8 2d3e 317c 1d3e 779c 563d 71b1 eebe
00000210: a2c1 263e b4db 863f b3b1 073f 38d2 69bf
00000220: bc48 cf3d 16f1 e63e 5c13 163d 51cc d2bd
00000230: 7a15 753e 500e 7a3f aa28 693e a8c3 3d3c
00000240: 34ea 033f d3d5 adbe 603b 873e ea09 67be
00000250: 02ce 55be 2306 4abe 0737 77be eb63 af3d
00000260: afed 343f a81f 863e e0c9 b33e 50ac 81be
00000270: 2ba1 a5bf c916 f9bd 6320 ab3e e434 61bf
00000280: d340 323e 75e0 573f c51d 003f c234 83be
00000290: ff61 fe3d b68e cabe 4e1d 4abe cb82 c0be
000002a0: d74d f1bc 81c8 cabd 952f 923e e2cf 02bd
000002b0: f74e cf3d a5c8 bf3e 92f0 383f 5eab ecbd
000002c0: 6918 693d 0454 ad3e 2cfb 173e f997 933e
000002d0: 1766 8cbf eaf5 3bbe 7db8 4a3f 2d83 053d
000002e0: 7c52 1fbe 4552 32be 388f efbd e1f0 c73e
000002f0: 3501 eabe 9da7 8c3f 5917 683f a468 9cbb
00000300: 3643 17be 0c66 55be e7b7 e8bd bb6b 5d3f
00000310: a803 b8be 9cc3 8abf d642 3cbe e128 d3bb
00000320: 24ac c63e 629f e6be d5cb ab3e ba56 99bd
00000330: f792 8dbc 138f 18bf a2aa a2be a26d 01bf
00000340: e2b1 6cbe bd85 db3c aeb6 06be 647b 213e
00000350: f19d 01be 011f 043e 9963 8d3e 2530 863e
00000360: 1bc3 2abe c2d6 91be 1132 eebe 22bb e23e
00000370: 8b0b 163f 02a9 9e3b 20e4 25be 5941 343f
00000380: 1e16 93be 3046 59bf e85e c2be 8986 a7be
00000390: f476 16be 2b71 ba3e 14c7 363e 7983 a9be
000003a0: 062b 07be f967 313e afd6 9fbd c14c cbbd
000003b0: a645 d4bc e36c ccbd 7218 b0be f76a 5dbe
000003c0: 77e2 993d b226 0e3e bbea cbbd 64b7 2d3e
000003d0: 2f3b 8d3f 4f22 f2be 08e7 48bf ba5b fbbd
000003e0: c873 0dbe 3c33 edbd b8cc 4dbe 596c 0abd
000003f0: b07f 203e 065c 4dbf 6deb 1abf 9f73 0e3e
-0.07766737 -0.2895266 0.212094 0.65107465 -0.14066795 -0.91863734 -0.5745042 0.49603587
-0.06078946 -0.58831 0.36341354 0.039667036 0.17896336 -0.8046782 -0.5517606 0.20580639
-0.58482283 0.04877737 0.009076215 0.31133616 0.30518055 0.14112808 0.32111567 0.5460916
-0.5521253 -0.1766897 -0.2902506 0.80159175 1.0255543 0.1953056 -0.0038338667 1.0612768
-0.10401486 -0.7970857 -0.24823894 -0.14433353 -0.14909521 0.05710344 0.05097336 -0.15212242
-0.12470888 0.22517858 -0.23300046 0.13322031 0.041566346 0.2669209 -0.65758955 0.31062508
-0.22025716 -0.21033223 -0.02844205 -0.5032396 0.6980597 -0.37166208 -0.9042968 0.029262807
-0.049667783 0.10600985 -0.23989356 0.09060185 0.03501468 -1.4288734 -0.6288141 -0.13042273
0.0756493 0.32686383 -0.039715476 -0.85291636 0.28671935 0.73718774 0.0873671 -0.1812761
0.30632 0.6348701 -0.06500745 -0.21722004 0.033079185 1.2329167 -0.014089877 0.004225717
0.65995634 -0.37489948 0.5347642 -0.118335985 -0.24494065 -0.16904871 -0.7882717 -0.21527132
0.24810125 -0.22435802 0.3594585 -0.9197869 -0.6393286 -0.076292574 0.3346277 -0.94243443
0.29535618 0.57420194 0.5130606 0.27086407 0.105799444 -0.55016047 0.2749984 0.3389077
-0.13529627 0.021975199 -0.055912413 0.077501304 0.0075811464 0.4469124 0.4373115 -0.043317422
0.36871922 0.083770655 0.22640933 0.5821074 -1.0541267 0.37845626 0.2942278 -0.33898506
0.19384225 0.0907933 -0.17995925 0.5266695 0.015201801 1.1213783 0.5431429 -0.12863562
0.16983177 0.15379407 0.05239531 -0.46619752 0.16284803 1.0535798 0.5300552 -0.91336393
0.10121295 0.4510581 0.036639556 -0.102928765 0.23933974 0.9767809 0.22769418 0.011582293
0.5152924 -0.33952197 0.26412487 -0.22562376 -0.20879367 -0.19728903 -0.24142085 0.0856398
0.70675176 0.26196027 0.35114956 -0.25326777 -1.293981 -0.12162549 0.33423147 -0.8797133
0.17407541 0.8432687 0.50045425 -0.2562619 0.12421035 -0.39562005 -0.19737741 -0.37599787
-0.029456062 -0.09901524 0.28551927 -0.031936534 0.10122483 0.37457767 0.7224208 -0.11556123
0.056908045 0.3385316 0.14841908 0.28826883 -1.0968655 -0.18355528 0.79187757 0.032595802
-0.15558809 -0.17414196 -0.11697239 0.39050964 -0.45704046 1.0988652 0.90660626 -0.0047732163
-0.14771733 -0.20839709 -0.113632016 0.8649251 -0.3594029 -1.0840945 -0.18384871 -0.006444082
0.38803208 -0.45043474 0.3355395 -0.07487245 -0.017281992 -0.59593314 -0.31770808 -0.5055791
-0.23114732 0.02679717 -0.13155624 0.15769726 -0.12657906 0.12902452 0.2761505 0.26208606
-0.1667599 -0.2848416 -0.46522573 0.44283396 0.58611363 0.0048419246 -0.16200304 0.7041221
-0.28727812 -0.8487272 -0.37963033 -0.3271983 -0.14693815 0.36414465 0.1784938 -0.33108118
-0.13200006 0.17324819 -0.078046195 -0.09926749 -0.025912117 -0.09981706 -0.3439365 -0.21622835
0.07513898 0.13881949 -0.09956881 0.16964489 1.1033686 -0.472918 -0.78477526 -0.12273355
-0.13813698 -0.11582038 -0.20097625 -0.033794735 0.15673709 -0.8021854 -0.6051548 0.13911293

shared.2.bias f4 [64]
00000000: 799e 88bd 3c20 58be c7cf 23be 29e7 cd3d
00000010: 145c 103d b429 11be 39e0 18bd 4723 473d
00000020: 7058 b73e 0325 f5bc 3765 65bd bfcd a33e
00000030: ca68 2ebd 639e bebc d7a5 38bd f049 58be
00000040: c3cf a9bd b2af 46bd ec90 bebd 528b a93e
00000050: f83a 8e3e 077b ea3d de1a 9bbe 6c77 88be
00000060: e252 bfbd 0150 45be 94d1 e73c 503d 273e
00000070: 8c9c d43d 9c67 1abe 3d3e 9e3d 97c7 d13e
00000080: 957e 8f3d d0f8 2fbc 0018 e53d 83b0 8bbe
00000090: 100a b0bd a8eb c8bd 438a a33e 8ac8 d83c
000000a0: f524 1cbe 8db6 793d 4183 84be df47 be3b
000000b0: 08c9 383c bd48 b43d 771a 3bbd ce8b cbbe
000000c0: eda8 4cbe b1d8 25bd 00d1 e03d af12 523e
000000d0: d564 903e 201c 0d3c 52cc b1bc adbe ee3d
000000e0: 78c7 75bd b7ed 8b3e 69bc 923e dd2b 083d
000000f0: df66 933e 63f5 b53d 4f25 b03d be22 5f3d
-0.06670851 -0.21106046 -0.1599723 0.10053856 0.035244063 -0.14176065 -0.03732321 0.048617627
0.3580966 -0.029924875 -0.05600473 0.3199291 -0.042580403 -0.023268884 -0.045080032 -0.21121955
-0.082915805 -0.0485074 -0.093049854 0.33114105 0.27779365 0.11449247 -0.30293936 -0.26653612
-0.093419805 -0.192688 0.028298177 0.16331983 0.103814214 -0.15078586 0.07726715 0.40972587
0.070065655 -0.010740474 0.11186218 -0.27283105 -0.08595669 -0.09810573 0.31941423 0.026462812
-0.15248473 0.06096511 -0.2588139 0.0058069075 0.011278398 0.08802936 -0.045679536 -0.397551
-0.19986315 -0.040489856 0.109773636 0.2051494 0.2820193 0.008612663 -0.021703873 0.11657462
-0.06000468 0.273298 0.2865937 0.033244956 0.28789422 0.088846944 0.08600866 0.054476492

actor_mean.weight f4 [1, 64]
00000000: 005f b9bd a33e 623d 4c22 9d3c adb1 003d
00000010: e1db d03d 3ef7 4c3e 91ea e5be f223 7e3d
00000020: cfd4 bebe 7d32 2ebe 8c46 c93e 649a 103e
00000030: 4bd5 38bd ee30 e33e 0107 4dbe e38f a9be
00000040: 242b f1bc 9688 27bf 5eb5 f63d 3b48 423e
00000050: 1c8d 6ebe 426d ca3d 5483 963e 4fc2 96bd
00000060: 3e95 8d3e 2111 babe 588f 3f3c d967 9fbe
00000070: f06b d53c 656a 65be 71bc 3d3e a022 3abe
00000080: bff9 acbd 28ea 7d3d 246b 473e e34c 3fbd
00000090: ef19 1e3e ef1b d7bd 967d e1be 243f 203e
000000a0: 1bfc fe3c 503b 8aba 26fc cbbe 2af9 77be
000000b0: 81a7 e03e a6ff c13e ac19 723e 665b b6bd
000000c0: b81f 383d 58cd 21be ce73 a43d ec78 923d
000000d0: e167 cdbd 4412 af3e 4110 b8bd ac23 ed3d
000000e0: 4dd2 93be 907a 053e d6de 873e 0d63 bf3d
000000f0: 5f9a 163f 838a 84be a124 0b3f 70b1 d03b
-0.09051323 0.055235516 0.019181393 0.031419445 0.101981886 0.2001619 -0.44905522 0.062046
-0.37271735 -0.17011447 0.39311635 0.14121395 -0.045125287 0.44373268 -0.20022203 -0.3311759
-0.029439516 -0.6544279 0.12046312 0.18972866 -0.23296016 0.098841205 0.2939707 -0.0736128
0.27652925 -0.36341193 0.011691891 -0.31133917 0.026052445 -0.22403868 0.18528916 -0.18177271
-0.08446073 0.061990887 0.19474465 -0.046704184 0.1543958 -0.10503375 -0.44041127 0.15649086
0.031126073 -0.0010546241 -0.39840811 -0.24216142 0.43877795 0.37890357 0.23642606 -0.089041516
0.044952124 -0.15800989 0.080299005 0.0715197 -0.10029579 0.34193623 -0.08987475 0.115790695
-0.28871384 0.13035035 0.26537198 0.09345064 0.588293 -0.25886926 0.54352766 0.0063688084

critic.weight f4 [1, 64]
00000000: f7e5 fdbf 23c3 0340 47e0 0e40 ec99 09c0
00000010: c12a 0040 0166 0a40 ff76 09c0 05d3 10c0
00000020: 7bd7 09c0 18d6 db3f dc84 1440 b515 08c0
00000030: c9ed 1040 9490 21c0 7d8d e1bf ffb8 b53f
00000040: 43da 0e40 e1bb 0640 b771 1240 df24 0bc0
00000050: c4a9 0cc0 deac 16c0 8009 0f40 7057 1940
00000060: dd9a 1340 e7ba 1640 5066 c0bf e332 08c0
00000070: 5586 14c0 a64e dc3f c661 1a40 d3f9 03c0
00000080: bb92 10c0 d28e 11c0 ccd7 05c0 98b4 1240
00000090: 7832 0e40 2993 1cc0 183d 20c0 9bde ba3f
000000a0: 9973 0c40 9a1e cc3f 58b4 0740 0836 04c0
000000b0: e5a7 b53f 5285 0bc0 f4bc d33f df0b 22be
000000c0: f2ef 0b40 2e74 d4bf f1fd 87bf 6c98 18c0
000000d0: 661a 15c0 26f5 d6bf f304 3740 2588 b4bf
000000e0: e821 c8bf ce74 08c0 a8f8 1ac0 6444 0cc0
000000f0: 7d5b 11c0 972c 6dbf cfb0 09c0 9080 b53f
-1.9835805 2.0587852 2.2324388 -2.1500196 2.0026095 2.1624758 -2.147888 -2.2628796
-2.153777 1.7174711 2.320609 -2.126325 2.2645133 -2.5244493 -1.7621304 1.4197081
2.2320716 2.1052172 2.2881906 -2.1741254 -2.1978617 -2.354301 2.2349548 2.3959618
2.306327 2.3551576 -1.5031223 -2.1281059 -2.320699 1.7211502 2.4122176 -2.062123
-2.2589557 -2.274342 -2.0912962 2.2922726 2.2218304 -2.446482 -2.5037289 1.4599184
2.1945555 1.5946839 2.1203823 -2.0657978 1.4191862 -2.1800122 1.6542039 -0.15824841
2.18652 -1.6597955 -1.0624372 -2.384303 -2.3297362 -1.6793563 2.859677 -1.4104048
-1.5635347 -2.1321292 -2.4214268 -2.1916742 -2.271209 -0.92646164 -2.1514165 1.4179859

exp_avg f4 [64, 4]
00000000: f56f 9f3b dc99 353a 728a 5839 c746 45ba
00000010: 38fd de3b 575a 2e3a f62c 283b 7715 373a
00000020: e649 92bb 0a8a 24ba ef8f 813b 803b 533b
00000030: cf4b bfbb f570 25bb 8b7f 2cbc c611 1abb
00000040: 0636 473b 1242 953a 42ff 313c 11b2 b93b
00000050: 24ed d53b 7ee2 453b 9bb9 a03c f54b d33b
00000060: b6a3 3e3b 0014 7a3a 1004 fa3b 8611 bc3a
00000070: 46e4 123a 0302 80ba 29ca 02bb d4cc 02bb
00000080: 0c0e a23b d7b5 0239 7105 3bba fb69 90ba
00000090: 55bc 063c def6 163b 28ed 953b 30ed 1c3b
000000a0: dbcd 8bba d55b c739 217d b13b acad 403b
000000b0: 6fa9 f4ba 7567 f2b9 2eed aabb 359a 08bb
000000c0: a25d 62ba 2194 96b9 d195 723b 5192 923a
000000d0: f929 0a3c 5642 753b 829e 393c 9c7a 563b
000000e0: b4af ee38 f559 853a 1a9c eb3a 0e2d ce3a
000000f0: 7971 a13a 4b73 6b3a b06e 053c fe76 993b
00000100: bc58 2f3c a6ff 0a3b 7bc4 5139 9482 cfba
00000110: 7648 0cbb 6dd2 40ba aee3 dcbb 62e8 5ebb
00000120: daee b73b 080a 993a 1720 bb3b 2e53 fd3a
00000130: ba40 4bbb fab2 30b9 f9e9 26ba b47b cab8
00000140: eb4e c4ba 23d7 f3b8 2863 623c 47ba 013c
00000150: 50b7 0abb 72a5 efb9 05d1 4abb ec41 b0ba
00000160: 0cf8 f3ba 79ac 38ba ab79 c03a e834 8b39
00000170: be13 0a3c 5830 8739 1c79 c7bb 0360 b8bb
00000180: 8313 21ba 79fe a93a 1f4a 213b 1161 2a3b
00000190: ed7e b33a 7a2e 543a 0fcf 363c 9c77 b83b
000001a0: 9b22 583b 4b0e 6c39 39ac f53b ac5d 3c3b
000001b0: 7208 a3ba 7528 acba efe2 bc3a cc1e 4b3a
000001c0: 16a3 28bc 42ba 2bbb 970a 5dbc 9abf 1dbb
000001d0: 9f61 d43a ebb7 c039 2f9a cfb9 55d7 15ba
000001e0: 674c 003a 7fac adb9 d74f 74bb 5343 33bb
000001f0: 9338 dbbb 3604 59bb c96b 16bc 516f 55bb
00000200: 992f 9b3b a701 393a 55dd 0b3c f91b 793b
00000210: 586d a13b e66e 1d3b 232f ee3b 7fe1 5a3b
00000220: 9d64 e33b e0b5 873a 82dd 853b af6a cd3a
00000230: a000 823c ff73 523a 03a8 00bd c88d 9abc
00000240: cf69 94ba 18d0 3db7 3db2 1c3c f27e a13b
00000250: 564a 95bb 685c e3b9 7d06 cf3a 2bab a43a
00000260: 683b 783a ba4e 90b9 2f11 3fbc 84aa d8bb
00000270: 9a3d 45ba e6c5 e438 beb0 7e3c 6608 073c
00000280: 5857 1bbb 4ea9 3339 4106 473a c4fc d13a
00000290: 2ae5 b53b c416 e738 67f8 e4ba 4afb fcba
000002a0: cb36 b73a c636 183a b483 373b 1ef1 a73a
000002b0: 6151 763a 4c5e 823a e51e 503b 8501 bd3a
000002c0: 7906 713a b0f3 46b9 44ef d8ba 2f97 c0ba
000002d0: e90e 2b3b b857 cc38 18f1 26bb 4687 1bbb
000002e0: 7e88 bf3b ea24 013b c467 813b 56c9 143a
000002f0: bb07 af3a e681 1cba f47c 55bb 1706 47bb
00000300: 83f0 1b3b f99d 5739 1d58 d739 6088 92b9
00000310: 6407 aa3b c90c 4c3a d5f4 ad3a 908f 39ba
00000320: 3552 8a3b bb32 173a f7a2 d13b 2190 3f3b
00000330: 85f2 ac3b e2e0 ae3a 3069 b3bb 861f 58bb
00000340: 2f38 a9bb 4ef9 4fbb 106f 07bc b88e 60ba
00000350: fd4e 333b 5ce2 8d39 c3cd 8fbb 8d57 e3ba
00000360: efc2 953a ce83 a13a 021e 52b9 92ec 673a
00000370: fd4b 8bba f51b 3037 c5dc 9a3c 636d 193c
00000380: 1266 4b3b 65b0 4f3a 70ba f2bb dbae 8ebb
00000390: 731f 923c dd04 163a d1d9 ecbc b274 8abc
000003a0: 31b5 5e3b 46cd ae39 b49d 53bc af84 cfbb
000003b0: ce96 983b 9fe9 943a 77c6 f23b d9ac 5c3b
000003c0: 23d1 1cbc d8a2 aeba 6e75 dfbb 7292 4dba
000003d0: 5ff5 223c 98f4 753b 16be c53c e3a9 0c3c
000003e0: 4122 c6b9 a337 aa3a ebd7 c03b 0cd7 833b
000003f0: 4d7a 793c f3e5 2a3a f57c cbbb 11cf cbbb
0.0048656412 0.0006927529 0.0002065094 -0.00075255 0.0068050884 0.0006651035 0.0025661564 0.00069840945
-0.004464376 -0.0006276673 0.003953926 0.003223151 -0.0058378945 -0.002524433 -0.0105284555 -0.002350913
0.003039719 0.0011387488 0.010864081 0.005666979 0.0065285135 0.0030194814 0.019619754 0.006448264
0.0029089279 0.00095397234 0.007629879 0.0014348484 0.00056034734 -0.0009766225 -0.0019956923 -0.0019958513
0.004945522 0.00012465507 -0.0007134295 -0.0011017913 0.008223613 0.0023035328 0.0045753904 0.0023945086
-0.0010666208 0.00038024658 0.005416528 0.0029400392 -0.0018666218 -0.00046234918 -0.0052162623 -0.0020843868
-0.0008635168 -0.00028720594 0.0037015567 0.0011182522 0.008432859 0.0037423573 0.011329295 0.003272689
0.000113814516 0.0010173904 0.0017975599 0.001572998 0.0012317143 0.00089817186 0.008144066 0.0046833744
0.010702308 0.0021209507 0.00020004988 -0.0015831762 -0.0021405495 -0.00073555746 -0.0067410087 -0.0034013023
0.00561319 0.0011675963 0.0057106125 0.0019327158 -0.0031013922 -0.00016851342 -0.0006367262 -9.655152e-05
-0.0014977133 -0.00011627215 0.013817586 0.007917947 -0.0021166392 -0.000457089 -0.003094734 -0.0013447381
-0.0018613352 -0.00070447434 0.0014684697 0.00026551564 0.0084275585 0.00025785225 -0.0060874354 -0.00562668
-0.000614457 0.0012969516 0.002461083 0.0025997797 0.0013694443 0.0008094084 0.011157765 0.005629493
0.003297961 0.00022512038 0.007497337 0.0028742356 -0.001243843 -0.0013134616 0.0014410893 0.00077484245
-0.010292789 -0.0026203548 -0.013491294 -0.0024070502 0.001620341 0.00036758123 -0.00039596992 -0.0005715986
0.00048941973 -0.0003312565 -0.0037279034 -0.002735336 -0.006690094 -0.0033114082 -0.009180971 -0.003256757
0.0047358987 0.0007057436 0.008536656 0.0038011058 0.004926365 0.00240224 0.0072688027 0.0033398566
0.0069394843 0.0010353886 0.0040852437 0.0015672053 0.015869439 0.0008028149 -0.03141023 -0.018866435
-0.0011323037 -1.13137285e-05 0.00956398 0.004928463 -0.0045559807 -0.00043365662 0.001579478 0.0012563219
0.00094693014 -0.00027524476 -0.011661812 -0.006612124 -0.0007524133 0.00010908749 0.015545068 0.008241748
-0.0023703184 0.00017133841 0.00075921795 0.0016020765 0.005551 0.00011019179 -0.0017469049 -0.0019300964
0.0013978122 0.0005806502 0.0028002085 0.0012812947 0.00093962817 0.0009946316 0.0031756696 0.0014420009
0.0009194385 -0.00018973532 -0.0016550799 -0.0014693494 0.0026101416 9.743817e-05 -0.0025473293 -0.0023731752
0.0058451286 0.001970584 0.0039491374 0.00056757533 0.0013353744 -0.0005970284 -0.0032575699 -0.003036862
0.002379448 0.00020562847 0.00041073645 -0.00027948897 0.0051888693 0.00077838876 0.0013271818 -0.00070785824
0.0042212256 0.00057677523 0.0063976008 0.0029230195 0.005277934 0.0013342167 -0.005475186 -0.0032977774
-0.0051641683 -0.003173429 -0.008266225 -0.00085661886 0.0027360313 0.00027062267 -0.0043885424 -0.0017344818
0.0011425893 0.0012322606 -0.0002003834 0.00088472024 -0.0010627505 1.0496927e-05 0.0189041 0.009364459
0.003103618 0.0007922708 -0.007407479 -0.0043543405 0.017837262 0.00057227706 -0.028912457 -0.016901348
0.003398251 0.00033340807 -0.012916017 -0.006332956 0.004656649 0.0011361128 0.0074089128 0.0033672361
-0.009571346 -0.0013323678 -0.0068194186 -0.00078419514 0.009946196 0.0037529822 0.024138492 0.008585426
-0.00037791024 0.0012986552 0.0058851144 0.0040234383 0.015226913 0.00065192505 -0.0062099644 -0.0062197526

exp_avg_sq f4 [64, 4]
00000000: 44ba b339 518e 2636 14d6 9139 93c2 e038
00000010: 2b9f c139 b782 d436 99e8 bc39 8a95 a138
00000020: 815a 0c3a 4f57 8f36 fe98 ff39 8a37 3839
00000030: 8f6e 333b 71e3 4a38 b8c5 8f3b ce56 ae3a
00000040: c54c e339 7af6 3937 861c 903a ab9a ac39
00000050: e1fc 773b 6da5 d338 d868 ff3b 6e7e 0c3b
00000060: 140a 463a a28d a737 b41d bd3a 4399 c739
00000070: cebe 9037 7811 7036 9a32 ee38 0706 c537
00000080: b23d dd38 9e95 2a36 186b 9339 68f0 8838
00000090: 8bf2 743a dac4 0238 8ebe 363b 9351 373a
000000a0: 67ab 8f39 03f4 8c36 7ae8 fb39 461b 1539
000000b0: 4b08 8f39 f127 0736 1f26 8939 cf8a e638
000000c0: b927 c339 1c36 3137 46b2 263a 9564 2e39
000000d0: 8af9 1e3b 2b50 b438 0dc9 f43b 8e76 053b
000000e0: 20f5 b237 f3ac 8f36 011c 7d39 7ebb 5d38
000000f0: c447 6039 a74c 0537 b967 583a 857e 7439
00000100: 6742 8b3a 29e4 a937 a3fb eb3a a815 cc39
00000110: 6c74 de39 4659 ef36 f065 353a 0c80 7539
00000120: 0ac5 113a 1906 e636 bf23 3e3a f112 8c39
00000130: ac4f 9f39 413c 8e36 f040 db39 46b8 1639
00000140: 53f0 f639 45b7 1037 4ac0 9d3a 91a6 c539
00000150: c3e2 093a f955 8e36 ecd8 b639 44c6 0e39
00000160: 96e2 e039 265f 8636 7b05 b039 2f72 0c39
00000170: 5ebd 423a 36b8 ac37 7a03 d83a 346a d639
00000180: 093d b637 6f07 a736 84a2 3939 b5b8 0e38
00000190: 4019 9739 0ce6 2d37 1e9e 913a 26ec a539
000001a0: 84a7 7239 e31a 9a36 eda8 6a39 cdaa 7738
000001b0: b388 0f3a a73e 9437 e35c 393a 678d 5c39
000001c0: e704 e73a a664 1e38 3fb2 e13b f93c f63a
000001d0: b1af 043a e943 ea36 ae76 1a3a 0a9d 7e39
000001e0: c841 9c39 25e7 2337 521a 533a cb43 8539
000001f0: 2d6f e43a b8a9 9e38 2dfb c63b d136 d23a
00000200: 9fd9 2f3a fbfb 1a37 4e8a 803a 81ff b639
00000210: 9ef9 1c3a 79b0 2138 9d1a 553b 1af9 593a
00000220: c5d1 a339 c743 0f37 7830 343a a8d5 5539
00000230: 4209 283b 910e 6a38 f497 0a3c 103c ff3a
00000240: 2514 7a39 4135 9636 24e3 0f3a 690f 3d39
00000250: a0a8 1039 f325 5636 c6c1 1139 0de2 0c38
00000260: d728 9839 9232 3537 ee0a 933a 7e95 a939
00000270: 77ff 5e39 52da 2937 f9ac e13a 6e8b e739
00000280: bb2c 9439 e56d 0b36 8277 b339 05de 0e39
00000290: 7652 b539 cfe8 0837 c5bf de39 dfda f138
000002a0: 09f0 1b39 25af 2336 ef29 3a39 60e9 5f38
000002b0: 3d43 a739 ac86 1337 9ac2 1c3a eaa2 4639
000002c0: f480 4839 5087 c636 04e0 f639 7e04 1239
000002d0: 726d a439 517e 2236 c124 ac39 035c 0b39
000002e0: 0bca 883a 67dc a037 a1b1 103b a1bc 203a
000002f0: 1199 8038 fc06 1836 1ef9 ed38 7f64 2338
00000300: 460e e039 71f6 6d36 05b1 023a 2e0b 4139
00000310: 76cd 1c3a 386b bd36 ec3b 393a 6c9e 7b39
00000320: 474c d439 426a ed36 d184 313a 73a1 7b39
00000330: aa5a 553a 2f10 5537 9b89 083b 021c 143a
00000340: 86f3 293b 2310 a238 1628 cc3b 2b61 dd3a
00000350: e439 8739 1cb4 0d36 4b44 6339 332d c338
00000360: d8fe f637 231b 9536 8fc5 c438 4682 a237
00000370: 02fe 8539 a989 0c37 4b04 d03a 6cc1 e039
00000380: daad f439 2845 ec36 8ab0 753a 72f4 9339
00000390: 06ed 4b3b 5a88 aa38 3a65 793c 6697 6f3b
000003a0: d6c4 a239 9b90 1d37 059c ca3a 5dea ce39
000003b0: df0e d339 1e1a 0537 4ffc 3a3a 84d0 6e39
000003c0: 89a8 023b edf3 c437 b600 413b 3340 793a
000003d0: 34bc 803b 64e9 0b39 af88 3f3c 86c7 4e3b
000003e0: 921a 083a fb23 2738 85b3 1b3b d92b 163a
000003f0: f7a3 c53a 2c61 1138 584e 1f3b ffed 063a
0.0003428032 2.4818767e-06 0.00027816056 0.000107173946 0.00036930418 6.3333096e-06 0.00036031453 7.704932e-05
0.00053540623 4.271896e-06 0.00048751378 0.00017568297 0.002737913 4.8372374e-05 0.0043875836 0.0013301016
0.00043354012 1.1084247e-05 0.0010994829 0.00032921633 0.0037839937 0.00010092077 0.007794481 0.0021437663
0.00075546023 1.9973904e-05 0.0014428408 0.00038070427 1.7254988e-05 3.5772955e-06 0.0001135815 2.3487037e-05
0.00010549593 2.5419063e-06 0.00028117816 6.5297645e-05 0.0009344003 3.1177748e-05 0.0027884576 0.00069930515
0.0002740279 4.200732e-06 0.0004804766 0.00014219907 0.00027281264 2.0139817e-06 0.0002615908 0.0001099311
0.00037222894 1.056262e-05 0.0006358962 0.00016631403 0.0024257624 8.598001e-05 0.007470256 0.0020364854
2.1333399e-05 4.281866e-06 0.00024138392 5.286512e-05 0.0002138904 7.945265e-06 0.0008255202 0.00023316786
0.0010624648 2.0252615e-05 0.0018004071 0.00038926047 0.0004242988 7.133148e-06 0.0006919792 0.00023412722
0.0005560672 6.855244e-06 0.00072532514 0.00026716993 0.00030386203 4.2389443e-06 0.00041819317 0.00014373762
0.00047099832 8.62574e-06 0.0012035456 0.0003769887 0.00052599254 4.2419383e-06 0.00034875365 0.00013616035
0.0004289343 4.004588e-06 0.0003357342 0.00013393977 0.00074287306 2.0589778e-05 0.0016480528 0.00040896388
2.1724512e-05 4.977853e-06 0.00017703517 3.402746e-05 0.00028819777 1.03651655e-05 0.0011109745 0.00031647197
0.00023141323 4.5926877e-06 0.00022378909 5.904846e-05 0.0005475387 1.767215e-05 0.0007071031 0.00021033511
0.0017625362 3.776387e-05 0.0068877037 0.0018786482 0.00050615805 6.981649e-06 0.00058923184 0.00024281829
0.0002980365 9.769375e-06 0.0008052933 0.00025418247 0.0017428152 7.56564e-05 0.006072423 0.0016038065
0.0006708148 9.237784e-06 0.0009806843 0.0003490411 0.00059881236 3.8549744e-05 0.0032517083 0.0008315012
0.00031246073 8.539245e-06 0.00068736775 0.00020392856 0.0025640284 5.5803514e-05 0.00845908 0.0019472856
0.00023849362 4.476548e-06 0.00054888637 0.00018030185 0.00013795728 3.1910574e-06 0.00013900464 3.3589127e-05
0.00029022127 1.0800215e-05 0.0011218467 0.00032345572 0.00021266738 1.0124017e-05 0.0017217688 0.00044163637
0.00028262087 2.077658e-06 0.0003423058 0.00013624884 0.00034584448 8.160437e-06 0.0004248602 0.000115325434
0.00014871372 2.439084e-06 0.00017753964 5.338469e-05 0.0003190282 8.7932385e-06 0.00059799256 0.00018943442
0.00019121525 5.9166123e-06 0.0004708768 0.00013925318 0.0003136206 2.4213407e-06 0.0003283378 0.0001329035
0.001043619 1.917612e-05 0.0022078531 0.00061316235 6.1320265e-05 2.265383e-06 0.00011347442 3.8955823e-05
0.00042735244 3.54592e-06 0.00049854844 0.00018410079 0.0005981544 5.645121e-06 0.0007066119 0.00023996242
0.00040492622 7.0755204e-06 0.00067718053 0.0002399737 0.0008138815 1.2699557e-05 0.0020833972 0.00056499254
0.0025932505 7.727768e-05 0.0062303646 0.001688992 0.00025792338 2.1115475e-06 0.00021673848 9.3067436e-05
2.9444156e-05 4.443705e-06 9.3828065e-05 1.9372568e-05 0.00025556987 8.376702e-06 0.001587042 0.0004286872
0.00046668836 7.041399e-06 0.00093723147 0.0002822015 0.0031116619 8.131629e-05 0.015221888 0.0036558746
0.00031045702 9.391598e-06 0.0015457874 0.00039465996 0.00040256136 7.933499e-06 0.0007132934 0.00022775127
0.001993688 2.3478608e-05 0.0029449887 0.00095081626 0.0039286856 0.00013343018 0.011690303 0.003155203
0.00051919476 3.9849412e-05 0.0023758125 0.00057285797 0.0015078773 3.4661192e-05 0.002430817 0.00051471585

exp_avg f4 [64]
00000000: 2293 abb9 db0d a7bb 645b 1dbb 8dda e8b9
00000010: 0e1a a7bb 88eb 2fbb b5a0 51ba 5c52 ed3a
00000020: e377 dbba f46a 8839 9102 8fb6 b1cf 7d3b
00000030: e17d 01ba 2f84 aaba 635c 10bb 3506 35bb
00000040: 3e5d 6bbb dd82 3e3b db54 66bb 3c12 44ba
00000050: 8f41 09bc 2976 323b 83d7 9a3a d96c f83a
00000060: 271c deba 671c b4bb 57d3 b3bb 0023 813b
00000070: e7a6 5ebb 0da1 5cbb 570d c23b eced 083b
00000080: 85d2 a2bb e30a 0dbb 792d 42bb 72aa 423b
00000090: b30f a8bb 0e62 ae3a 2c30 d63b cdcb 9bbb
000000a0: 265f 4a3b 13b6 ab3b 80f5 beb8 399a 6dbb
000000b0: 57e6 263b 372b 4abb 4ea7 8039 5dfb c33a
000000c0: 5104 33bb 60e6 07bb 56eb 26bb cef1 703b
000000d0: 7670 493b b410 e43a 7f79 f0ba 0fc3 b7bb
000000e0: 270e 9d3b aa4e 90b8 2afc b23a c428 0dbb
000000f0: cacc 94bb ac7f 32bb 035d 88bb e1d5 12bb
-0.00032725284 -0.0050980872 -0.0024010772 -0.0004441332 -0.0050995415 -0.0026843268 -0.00079966645 0.001810621
-0.0016744103 0.00026019628 -4.262031e-06 0.003872853 -0.0004939717 -0.0013009364 -0.0022027723 -0.0027622108
-0.003591373 0.00290697 -0.0035145793 -0.0007479524 -0.008377447 0.0027231073 0.0011813495 0.0018953338
-0.0016945646 -0.00549655 -0.00548784 0.00394094 -0.0033973993 -0.003366533 0.0059220004 0.0020893766
-0.0049689435 -0.0021521382 -0.0029629155 0.0029703644 -0.0051288246 0.0013304369 0.0065365043 -0.0047545196
0.0030879467 0.005240211 -9.105634e-05 -0.0036255254 0.0025466883 -0.0030848512 0.00024538714 0.0014952231
-0.0027315805 -0.002073668 -0.002546986 0.003676522 0.0030737198 0.0017399997 -0.0018346756 -0.0056079696
0.004792947 -6.8811074e-05 0.0013655473 -0.002153919 -0.0045410143 -0.0027236743 -0.0041614785 -0.0022405314

exp_avg_sq f4 [64]
00000000: c21b 6c39 9cfe 3539 8754 aa39 312a c03a
00000010: eb55 c939 6d07 f43a 4c09 cd39 9011 fe37
00000020: 4f6e 8038 e8e7 093a 0142 1c39 8f12 8039
00000030: d449 1739 354c 903a 5728 f637 28d5 3b39
00000040: 39e0 103a eb24 b239 595e f839 f840 7739
00000050: 686c e439 fb3d ba39 4e83 a439 5fb6 9239
00000060: 3692 3e38 197e 9f39 5331 2d39 e2fd 9739
00000070: 07d7 1e3a c813 003a 082d ae39 adbe 3e3a
00000080: d296 233a 64cf 4d39 15a6 7d39 e4b2 813a
00000090: 2bd0 6839 8a78 6838 4a1e a539 97d8 3b39
000000a0: a9cc 9139 e2cf 5539 6942 f438 7eee 8e39
000000b0: 2bf7 2f39 04c5 9d39 0a8a 123a 3619 ad38
000000c0: 64f8 b939 ccb8 d339 6d5c cf39 b3c4 f239
000000d0: 8865 9c3a 571d 5d39 8bf9 ed37 b5f3 6739
000000e0: a38e a339 ae2d 8b3a ce11 2839 76db a339
000000f0: 5f88 a23a edcb f53a 839a 3639 452a 0e3a
0.00022517054 0.00017356355 0.00032487905 0.0014661012 0.0003840172 0.0018617936 0.00039107574 3.0287338e-05
6.124062e-05 0.0005260692 0.00014901908 0.0002442789 0.00014427985 0.001100904 2.934427e-05 0.00017913117
0.0005526576 0.00033978312 0.0004737254 0.00023579958 0.00043568318 0.00035522864 0.00031378347 0.00027983167
4.54357e-05 0.00030420793 0.0001651694 0.00028990122 0.0006059263 0.000488576 0.00033221417 0.0007276338
0.00062404305 0.00019627583 0.0002418983 0.0009895233 0.00022202793 5.542537e-05 0.0003149382 0.00017914396
0.0002780904 0.00020390705 0.000116471965 0.0002726204 0.00016781378 0.00030092162 0.00055900274 8.253979e-05
0.00035471015 0.0004038274 0.0003955098 0.0004630439 0.0011932114 0.00021087132 2.8368804e-05 0.00022120665
0.00031196055 0.0010618472 0.00016028361 0.00031253294 0.0012400261 0.0018752791 0.00017414433 0.0005423169

exp_avg f4 [64, 64]
00000000: 0b5e 15b8 6c14 0db9 71a7 a037 9f96 4fb8
00000010: a3ac 71b8 3ab6 b1b7 a2a3 a038 d953 b338
00000020: c09e 62b8 9535 6eb8 8ed1 1eb7 b4aa 0439
00000030: e184 d738 53ea 6938 a49e 95b8 0f1f 51b8
00000040: a177 5db9 fce1 f137 6d9d 9fb8 0d76 62b7
00000050: 1515 28b9 1ff9 8b38 0b72 2c38 454c f0b8
00000060: e6e7 57b8 3d2b 32b8 23cc 14b9 fe59 23b8
00000070: 347a acb9 3ff0 8db8 f66a a538 17fc 84b7
00000080: 5b03 45b8 9c22 41b7 7eb5 3fb8 b500 0bb9
00000090: c52e f7b8 7961 b238 bd95 b638 8954 91b8
000000a0: c990 34b8 8499 7437 9517 d2b7 7d0c bab8
000000b0: 8e0a 5b38 cae5 4f37 fdaa 5d39 235f cd38
000000c0: fa7d 8c37 8b24 91b7 336b 89b8 d54f 1636
000000d0: a64e ffb8 75ea b838 4170 99b7 1784 05b9
000000e0: ef64 eb38 544b fbb8 ad41 5538 6769 0db8
000000f0: ab1d 5eb9 e6d4 72b8 9e45 97b7 d55f ecb8
00000100: 4db7 fc37 e885 fa37 8194 cdb8 c94a 64b8
00000110: 76f7 fb36 6ed9 c338 384b 9138 678f b8b8
00000120: 4ef9 9037 29d1 0638 ccbc 8a38 9594 79b8
00000130: 8640 5a38 bdd4 3f37 e13d a338 21a7 1f37
00000140: e737 e738 c755 8e37 313f b137 da14 2537
00000150: 1c23 44b8 81dd bdb7 11f4 6db8 6002 5bb8
00000160: 514d c838 f905 ca36 09d4 78b9 f7e7 c537
00000170: 3c24 6cb8 09ea 6c38 2fa4 c2b7 9ab0 52b8
00000180: 041a 8637 d941 8236 991a 20b6 d056 bf36
00000190: 57db 43b8 8b9e 20b5 2f68 b6b6 27a3 46b8
000001a0: 141b 97b7 a99e db38 4df4 7538 3fd4 8738
000001b0: d024 e8b7 02ee 5437 117b e338 f2d4 95b8
000001c0: a1e1 5537 169e 2e38 1bba 9436 539c a038
000001d0: cc0c abb7 63d0 e8b7 690c a938 be44 85b8
000001e0: 1ee8 2238 8b2b 48b7 59be 8038 624e 73b6
000001f0: 8870 2eb9 9807 ae38 ed48 cf38 5c74 b8b8
00000200: 5775 4038 905f 1f39 f1e3 9db8 beb9 ac38
00000210: e865 4a38 5fc6 7235 e9d7 aab8 297b 05b9
00000220: 4896 2e38 819c ff35 7ca2 9938 7c8c 2bb9
00000230: 20c3 2eb8 db85 fab8 b1e4 d838 0cfe 8a38
00000240: 5ea9 7339 5652 95b7 b147 d038 e7a9 ce37
00000250: f17d f938 4719 ffb6 0fef cf36 9fb0 9038
00000260: 94a0 ba38 2ce2 2438 0f21 ba38 2550 c538
00000270: 5bac 8939 899f f938 45a9 e0b8 9ad4 9738
00000280: 65c2 6338 e990 67b8 fc20 a237 bbe7 8038
00000290: d166 a738 d914 d4b7 1297 bab8 febb 1838
000002a0: a712 f934 9e52 2d38 8634 9d38 6913 0a39
000002b0: 3b6f bfb8 6200 d6b7 55c2 3db9 1ef2 15b9
000002c0: 1245 01b7 d630 3638 6b5a 8e38 f92f 3138
000002d0: 3738 2739 6e4c 07b9 0701 6b38 9aa9 b238
000002e0: aa9a b0b8 1fcd 4d38 6f46 0db7 eeff bd37
000002f0: 5f28 d738 05a0 d937 597a 4838 28ae 1738
00000300: 8e49 af38 9c4e 76b9 0f9b 07b9 8a6a 63b8
00000310: fb78 f5b6 2473 5438 fe0f 2c39 867e 7239
00000320: 1cda 45b7 edf6 cdb8 1708 af38 bf01 8cb7
00000330: abc3 9138 6fe0 cab7 b85f 3cb9 b492 edb6
00000340: 07ab 8bb9 c813 8db7 6c35 fa37 2350 00b9
00000350: dbfd 18b9 4fac f637 634a b0b8 fc93 75b8
00000360: f25e 5bb9 7906 29b6 dbb7 d2b8 7d0b 4438
00000370: 915d 2fb9 0e03 0338 e8de 2c38 98bb 2d37
00000380: 99bc 0e38 1513 b6b8 8a57 d635 745d ebb8
00000390: 3b06 0fb9 551e c137 fb28 6d38 19eb e0b8
000003a0: a2df 13b9 7d1b 7638 55fb 65b8 1fdd 0eb8
000003b0: 1280 8937 b67e c238 ccf0 6339 175c 6239
000003c0: 8890 f938 987c 9d38 d8e9 0236 2183 da38
000003d0: 7a6c a1b8 d068 9439 a5d0 13b9 8ce4 07b9
000003e0: ae0e f338 f1eb a4b8 66f8 fc38 82e2 2837
000003f0: 4fe8 61b9 3c04 58b7 0e69 aab8 8b7b f1b8
-3.5611953e-05 -0.00013454416 1.9151457e-05 -4.9492923e-05 -5.7619658e-05 -2.11849e-05 7.6598735e-05 8.551003e-05
-5.4030446e-05 -5.6793524e-05 -9.466325e-06 0.00012652093 0.000102767495 5.576976e-05 -7.134423e-05 -4.985841e-05
-0.00021120768 2.8834671e-05 -7.611034e-05 -1.3498136e-05 -0.00016029582 6.674439e-05 4.1114206e-05 -0.00011458298
-5.1475967e-05 -4.2478776e-05 -0.00014190427 -3.894604e-05 -0.00032897445 -6.768153e-05 7.887736e-05 -1.5853015e-05
-4.6971585e-05 -1.1511755e-05 -4.5706976e-05 -0.00013256336 -0.00011786589 8.505857e-05 8.706327e-05 -6.929885e-05
-4.3050186e-05 1.45792765e-05 -2.5044932e-05 -8.871497e-05 5.22235e-05 1.2391663e-05 0.000211399 9.792882e-05
1.6747963e-05 -1.7302364e-05 -6.5526365e-05 2.239821e-06 -0.00012173997 8.817475e-05 -1.8291294e-05 -0.00012733076
0.000112244736 -0.000119826436 5.0844323e-05 -3.3715183e-05 -0.00021182622 -5.7895573e-05 -1.803302e-05 -0.00011271207
3.0126097e-05 2.9864677e-05 -9.802823e-05 -5.4429085e-05 7.509191e-06 9.338824e-05 6.9281494e-05 -8.8005145e-05
1.728223e-05 3.2142885e-05 6.615519e-05 -5.9504604e-05 5.2035342e-05 1.1434019e-05 7.7839715e-05 9.516051e-06
0.00011025351 1.6967662e-05 2.112947e-05 9.839621e-06 -4.676274e-05 -2.2633702e-05 -5.6732508e-05 -5.221588e-05
9.5511445e-05 6.0207644e-06 -0.00023730112 2.3592247e-05 -5.630053e-05 5.6484747e-05 -2.3203056e-05 -5.0232375e-05
1.598616e-05 3.8819676e-06 -2.385734e-06 5.70235e-06 -4.66959e-05 -5.9835355e-07 -5.4361512e-06 -4.7358826e-05
-1.8013212e-05 0.000104722865 5.8640075e-05 6.4768356e-05 -2.7673697e-05 1.26916e-05 0.000108471264 -7.144538e-05
1.2748323e-05 4.163206e-05 4.4324092e-06 7.658512e-05 -2.0390748e-05 -2.7753593e-05 8.0608595e-05 -6.3547384e-05
3.8839986e-05 -1.1931067e-05 6.138971e-05 -3.6255447e-06 -0.00016635854 8.298381e-05 9.884113e-05 -8.795477e-05
4.588565e-05 0.00015199021 -7.528801e-05 8.236196e-05 4.825546e-05 9.0440693e-07 -8.146448e-05 -0.00012729749
4.1624793e-05 1.9044529e-06 7.3258736e-05 -0.00016360165 -4.1666557e-05 -0.000119458615 0.0001034228 6.627673e-05
0.0002323738 -1.7800525e-05 9.9315665e-05 2.463623e-05 0.00011896704 -7.602535e-06 6.196911e-06 6.899353e-05
8.899081e-05 3.9311286e-05 8.875329e-05 9.40862e-05 0.0002625909 0.00011902961 -0.00010712681 7.239841e-05
5.430206e-05 -5.520965e-05 1.9327264e-05 6.146679e-05 7.9823316e-05 -2.5282077e-05 -8.89731e-05 3.6414705e-05
4.6393436e-07 4.1323357e-05 7.496127e-05 0.00013167936 -9.128308e-05 -2.5510966e-05 -0.00018096839 -0.00014299943
-7.705081e-06 4.3437663e-05 6.787929e-05 4.2244767e-05 0.00015947303 -0.00012903076 5.6029323e-05 8.519292e-05
-8.4211424e-05 4.9066843e-05 -8.420654e-06 2.2649732e-05 0.000102595186 2.594293e-05 4.779766e-05 3.61634e-05
8.358351e-05 -0.00023489672 -0.00012932367 -5.422024e-05 -7.315653e-06 5.0651972e-05 0.00016409156 0.00023126052
-1.1792898e-05 -9.821155e-05 8.346157e-05 -1.6690114e-05 6.950585e-05 -2.4184787e-05 -0.00017964735 -7.080229e-06
-0.0002663957 -1.6817721e-05 2.9827199e-05 -0.00012236885 -0.00014590418 2.9405723e-05 -8.4061896e-05 -5.8550373e-05
-0.00020920837 -2.518673e-06 -0.00010047826 4.674074e-05 -0.00016724157 3.123568e-05 4.1215593e-05 1.0355281e-05
3.4031083e-05 -8.6819906e-05 1.596972e-06 -0.0001122308 -0.00013639864 2.3021517e-05 5.654337e-05 -0.00010724943
-0.00014102322 5.867657e-05 -5.4831926e-05 -3.4061373e-05 1.639131e-05 9.2742426e-05 0.00021738111 0.00021587346
0.00011900166 7.509551e-05 1.9507625e-06 0.00010419475 -7.6972836e-05 0.0002830685 -0.00014096739 -0.00012959744
0.00011589877 -7.864077e-05 0.00012062564 1.0066318e-05 -0.00021544214 -1.2875589e-05 -8.1258e-05 -0.00011514787

exp_avg_sq f4 [64, 64]
00000000: 5219 1a34 8e60 8c34 7190 2834 2d47 9a33
00000010: a930 7933 26cc 7f33 af4f 2834 47bf f834
00000020: dae1 e433 077a b633 0dd5 8b33 da33 b733
00000030: 80b8 0035 e43f 1f33 69ad c434 4a4c 6c32
00000040: f498 bf34 10ab db33 ae41 8533 17de 8f34
00000050: c79b 1134 d9f4 a934 3126 c334 dbeb 0435
00000060: b91d f734 fb37 2133 b64b fb34 38b8 7934
00000070: 238e d734 a3e9 f933 2a49 8e33 146e 4f33
00000080: 4759 6b33 9d29 2033 acb4 1834 7bcf 1435
00000090: 4b4a d933 d2f7 ef34 e277 0233 1833 9b33
000000a0: 81dd 0c34 72c0 8934 2b8b 8d34 2b8a 0e34
000000b0: 87bc a333 31df 2134 a4ef 7f34 b640 e034
000000c0: 07bb 2b34 394a 7e33 63cf 6733 f9aa b133
000000d0: 3c50 ef33 82ca 0035 673c 0235 3de8 0f34
000000e0: 3efd a733 c5e3 0335 be29 ca33 42eb ca33
000000f0: 42d4 8634 6939 1633 2c07 b734 6a46 0c35
00000100: 27f1 ad36 f569 3436 d76b 9836 ce85 df34
00000110: 818a 5336 875f 0c36 d63e c836 e1f8 6a37
00000120: 2898 c636 a758 7435 a223 2f34 1de6 7736
00000130: e79a a337 1ff7 1836 5b2d 5337 1f70 1935
00000140: 7717 2936 a3ee 0537 9744 ba36 3c57 5237
00000150: b2c8 ce34 632a 0c36 d56e 1237 7f94 e337
00000160: a47b 9737 f724 c735 289d 7e36 e4e7 0437
00000170: 7c91 6437 b151 0336 587f 5d34 9089 2e36
00000180: 595f 9736 1974 2836 ae12 d736 f5e8 9337
00000190: 75f2 2035 5533 8637 9924 f634 f5e0 7935
000001a0: 5d48 0037 0e57 c435 5f8f 8136 0afb 8634
000001b0: ddbc 3134 04f8 9e36 7f3e 4f36 f96f 0237
000001c0: 1b2c 0a37 e8dd 4536 3e80 af36 b439 0c36
000001d0: c72f 8936 3202 3337 9a29 bc37 f10a 2735
000001e0: b94b 8234 f3d0 a637 e804 0b36 a01f 9936
000001f0: 59f1 1036 4e21 6c36 2c4e d037 08cd 3337
00000200: 53b5 8134 679a ee34 4b0e 7534 a08e dd33
00000210: 7897 ba33 1ebe b033 83e9 6534 da49 5135
00000220: f6a9 4134 c718 2b34 3f43 b333 a006 1634
00000230: c6e6 4635 f956 7233 b984 2b35 f223 bf32
00000240: 0319 2635 c3e1 4634 7e5f d933 7971 f134
00000250: ce35 5834 b840 f534 a2b1 2035 ae96 5035
00000260: 1a39 4f35 df7a 7f33 36ca 3b35 2981 ba34
00000270: eb19 1f35 19b6 3d34 5f13 f533 6079 9933
00000280: e42f cb33 854c 8c33 1717 7734 651b 5035
00000290: 9193 2934 1904 3e35 1bac 4033 0c4e dd33
000002a0: bfc5 6f34 fc13 cd34 db85 f634 bfb1 7d34
000002b0: a3dc 0234 7c13 8e34 a5c7 bf34 4d98 4135
000002c0: f17f 9234 9340 c533 2c49 bc33 682f f733
000002d0: 63e1 2f34 19cb 5235 5d7a 5435 f1fc 5034
000002e0: 437f e733 53b2 3e35 8271 1134 b8af 2c34
000002f0: 8f72 c734 a36f ac33 7c83 2135 4186 4735
00000300: 82bc 8634 dc51 ca34 b270 4634 a24b d233
00000310: d4e7 cd33 d12c 8d33 8040 3f34 17e0 5035
00000320: 7c21 0634 b311 de33 ca8d 5733 86a8 dd33
00000330: e132 5e35 db4b 2e33 d127 2e35 1aee 9a32
00000340: e7e1 0835 b301 6e34 c172 df33 3e33 0735
00000350: f8bb 3234 006d c334 6f11 2335 f9a1 6035
00000360: 7aed 5235 f33f 8333 78e5 3035 bccd 3734
00000370: 5703 0235 59c9 c333 9cfa a633 3e37 3c33
00000380: 8e39 f733 59a7 1233 c4b8 8034 5678 4135
00000390: deb8 2134 7cee 4835 172a 2233 9b46 da33
000003a0: a2df 8534 b44a 9e34 0594 f434 d94c 4534
000003b0: 4398 9f33 5f01 9834 fb2b a834 75ef 3d35
000003c0: 8f46 af34 d239 cc33 7c7c dc33 5e8a ec33
000003d0: 4ad5 0434 5376 5535 bbb0 5e35 7246 2734
000003e0: 0fb2 da33 dc88 3635 4e1f 0a34 8c78 3934
000003f0: 1474 9934 ef04 9c33 1d3f 3635 4e5f 3d35
1.4351579e-07 2.6147285e-07 1.5698767e-07 7.1841306e-08 5.8019086e-08 5.9557486e-08 1.5675208e-07 4.6332772e-07
1.06581595e-07 8.497232e-08 6.5114456e-08 8.531033e-08 4.79522e-07 3.707818e-08 3.6634017e-07 1.3754354e-08
3.568781e-07 1.0229098e-07 6.205242e-08 2.6797417e-07 1.3560849e-07 3.1656853e-07 3.6349368e-07 4.9517047e-07
4.602896e-07 3.7536648e-08 4.680748e-07 2.325695e-07 4.015029e-07 1.1637464e-07 6.625699e-08 4.829606e-08
5.47964e-08 3.729075e-08 1.4221831e-07 5.543622e-07 1.0118364e-07 4.4697532e-07 3.0377016e-08 7.227044e-08
1.3119099e-07 2.565826e-07 2.6364555e-07 1.3275046e-07 7.624572e-08 1.507549e-07 2.3835906e-07 4.1770335e-07
1.5993656e-07 5.920649e-08 5.3972496e-08 8.2733045e-08 1.1143899e-07 4.7978403e-07 4.851667e-07 1.34024e-07
7.822608e-08 4.913275e-07 9.413951e-08 9.449151e-08 2.5113883e-07 3.497681e-08 3.4091624e-07 5.225653e-07
5.1838756e-06 2.6883765e-06 4.542507e-06 4.1634343e-07 3.152207e-06 2.091723e-06 5.9677795e-06 1.40054335e-05
5.918573e-06 9.102609e-07 1.6311108e-07 3.6939812e-06 1.9503246e-05 2.2793608e-06 1.258714e-05 5.71601e-07
2.519662e-06 7.98298e-06 5.551217e-06 1.2537286e-05 3.8516515e-07 2.0886298e-06 8.728083e-06 2.7129658e-05
1.8058177e-05 1.4837414e-06 3.7940426e-06 7.921804e-06 1.3623732e-05 1.9568072e-06 2.0628556e-07 2.6008092e-06
4.5112506e-06 2.5101529e-06 6.409674e-06 1.7632245e-05 5.9957466e-07 1.5997948e-05 4.58477e-07 9.3087084e-07
7.646243e-06 1.4628474e-06 3.86119e-06 2.51421e-07 1.6553118e-07 4.7376398e-06 3.0881781e-06 7.7746745e-06
8.23571e-06 2.9484454e-06 5.230336e-06 2.0895213e-06 4.08848e-06 1.0669743e-05 2.2430719e-05 6.222827e-07
2.4269482e-07 1.9886042e-05 2.071547e-06 4.563437e-06 2.1598155e-06 3.5186126e-06 2.4831934e-05 1.0716969e-05
2.4160053e-07 4.4443297e-07 2.2822603e-07 1.0317058e-07 8.688852e-08 8.230221e-08 2.1412238e-07 7.7966035e-07
1.8036357e-07 1.593463e-07 8.347569e-08 1.3972249e-07 7.409657e-07 5.6424117e-08 6.38956e-07 2.2251673e-08
6.1876216e-07 1.8522319e-07 1.012222e-07 4.497231e-07 2.0136142e-07 4.5681895e-07 5.9863135e-07 7.7705306e-07
7.7196603e-07 5.9483565e-08 6.9957184e-07 3.4739176e-07 5.926983e-07 1.7668243e-07 1.1412225e-07 7.146696e-08
9.4616354e-08 6.533177e-08 2.3012068e-07 7.75259e-07 1.5793036e-07 7.078648e-07 4.4860013e-08 1.0305311e-07
2.2330549e-07 3.8198766e-07 4.5918463e-07 2.3627125e-07 1.218746e-07 2.6463738e-07 3.5721783e-07 7.211973e-07
2.728771e-07 9.185273e-08 8.767742e-08 1.1510457e-07 1.638014e-07 7.852664e-07 7.9154216e-07 1.9463529e-07
1.07799245e-07 7.104001e-07 1.3545471e-07 1.6082674e-07 3.714999e-07 8.029681e-08 6.016851e-07 7.432864e-07
2.5096602e-07 3.7684993e-07 1.8481185e-07 9.7926446e-08 9.588226e-08 6.573976e-08 1.7811726e-07 7.781213e-07
1.2491904e-07 1.03409e-07 5.0187545e-08 1.0321769e-07 8.2775483e-07 4.0581522e-08 6.487799e-07 1.8036236e-08
5.099268e-07 2.2166095e-07 1.040512e-07 5.0365986e-07 1.6645924e-07 3.6400888e-07 6.07476e-07 8.3682204e-07
7.857667e-07 6.111795e-08 6.589903e-07 1.7118049e-07 4.8433634e-07 9.11702e-08 7.775563e-08 4.3822403e-08
1.1512303e-07 3.4145476e-08 2.3976293e-07 7.2073215e-07 1.5061548e-07 7.4852846e-07 3.7756845e-08 1.0164259e-07
2.4935895e-07 2.9484147e-07 4.555624e-07 1.8375012e-07 7.431711e-08 2.8313204e-07 3.1324439e-07 7.075644e-07
3.2647628e-07 9.510008e-08 1.0267192e-07 1.1014775e-07 1.2371052e-07 7.952087e-07 8.295862e-07 1.5578715e-07
1.0183805e-07 6.799944e-07 1.286364e-07 1.7273322e-07 2.858293e-07 7.2652135e-08 6.7892125e-07 7.0546673e-07
